…
nt4.py
Using device: cpu
Shape of dataset: torch.Size([60000, 28, 28])
Labels in the dataset: ['T-shirt/top', 'Trouser', 'Pullover', 'Dress', 'Coat', 'Sandal', 'Shirt', 'Sneaker', 'Bag', 'Ankle boot']
Number of training samples: 60000
Number of test samples: 10000
Number of training samples after split: 50000
Number of validation samples after split: 10000
Baseline Model:
----------------------------------------------------------------
        Layer (type)               Output Shape         Param #
================================================================
            Conv2d-1           [-1, 32, 28, 28]             320
              ReLU-2           [-1, 32, 28, 28]               0
         MaxPool2d-3           [-1, 32, 14, 14]               0
            Conv2d-4           [-1, 64, 14, 14]          18,496
              ReLU-5           [-1, 64, 14, 14]               0
         MaxPool2d-6             [-1, 64, 7, 7]               0
            Linear-7                  [-1, 128]         401,536
              ReLU-8                  [-1, 128]               0
            Linear-9                   [-1, 10]           1,290
================================================================
Total params: 421,642
Trainable params: 421,642
Non-trainable params: 0
----------------------------------------------------------------
Input size (MB): 0.00
Forward/backward pass size (MB): 0.65
Params size (MB): 1.61
Estimated Total Size (MB): 2.26
----------------------------------------------------------------
Improved Model:
----------------------------------------------------------------
        Layer (type)               Output Shape         Param #
================================================================
            Conv2d-1           [-1, 32, 28, 28]             320
       BatchNorm2d-2           [-1, 32, 28, 28]              64
              ReLU-3           [-1, 32, 28, 28]               0
         MaxPool2d-4           [-1, 32, 14, 14]               0
           Dropout-5           [-1, 32, 14, 14]               0
            Conv2d-6           [-1, 64, 14, 14]          18,496
       BatchNorm2d-7           [-1, 64, 14, 14]             128
              ReLU-8           [-1, 64, 14, 14]               0
         MaxPool2d-9             [-1, 64, 7, 7]               0
          Dropout-10             [-1, 64, 7, 7]               0
           Linear-11                  [-1, 128]         401,536
             ReLU-12                  [-1, 128]               0
          Dropout-13                  [-1, 128]               0
           Linear-14                   [-1, 10]           1,290
================================================================
Total params: 421,834
Trainable params: 421,834
Non-trainable params: 0
----------------------------------------------------------------
Input size (MB): 0.00
Forward/backward pass size (MB): 1.01
Params size (MB): 1.61
Estimated Total Size (MB): 2.62
----------------------------------------------------------------
Training Baseline CNN Model...
…
